…
odel': 'no_batch', 'model_dir': 'src/models', 'test_file': 'results/test_', 'sal_maps': 'results/nt_sq_maps', 'image_path': '../SWI_images', 'label_path': 'swi_brain_vol_info.csv', 'device': 'cuda', 'sal_batch': 1, 'sal_workers': 1, 'activation_type': 'NT_IntGrad'}
[30.34, 31.52]
Dataset length: 4436
==========================================================================================
Layer (type:depth-idx)                   Output Shape              Param #
==========================================================================================
Iron_NN_no_batch                         [1, 3]                    --
├─Conv_Pool_Block_noNorm: 1-1            [1, 32, 127, 143, 23]     --
│    └─Sequential: 2-1                   [1, 32, 127, 143, 23]     --
│    │    └─Conv3d: 3-1                  [1, 32, 254, 286, 46]     864
│    │    └─MaxPool3d: 3-2               [1, 32, 127, 143, 23]     --
│    │    └─LeakyReLU: 3-3               [1, 32, 127, 143, 23]     --
├─Conv_Pool_Block_noNorm: 1-2            [1, 64, 62, 70, 10]       --
│    └─Sequential: 2-2                   [1, 64, 62, 70, 10]       --
│    │    └─Conv3d: 3-4                  [1, 64, 125, 141, 21]     55,296
│    │    └─MaxPool3d: 3-5               [1, 64, 62, 70, 10]       --
│    │    └─LeakyReLU: 3-6               [1, 64, 62, 70, 10]       --
├─Conv_Pool_Block_noNorm: 1-3            [1, 128, 30, 34, 4]       --
│    └─Sequential: 2-3                   [1, 128, 30, 34, 4]       --
│    │    └─Conv3d: 3-7                  [1, 128, 60, 68, 8]       221,184
│    │    └─MaxPool3d: 3-8               [1, 128, 30, 34, 4]       --
│    │    └─LeakyReLU: 3-9               [1, 128, 30, 34, 4]       --
├─Conv_Pool_Block_noNorm: 1-4            [1, 256, 14, 16, 1]       --
│    └─Sequential: 2-4                   [1, 256, 14, 16, 1]       --
│    │    └─Conv3d: 3-10                 [1, 256, 28, 32, 2]       884,736
│    │    └─MaxPool3d: 3-11              [1, 256, 14, 16, 1]       --
│    │    └─LeakyReLU: 3-12              [1, 256, 14, 16, 1]       --
├─Conv_Block_noNorm: 1-5                 [1, 256, 14, 16, 1]       --
│    └─Sequential: 2-5                   [1, 256, 14, 16, 1]       --
│    │    └─Conv3d: 3-13                 [1, 256, 14, 16, 1]       1,769,472
│    │    └─LeakyReLU: 3-14              [1, 256, 14, 16, 1]       --
├─Conv_Block_noNorm: 1-6                 [1, 64, 14, 16, 1]        --
│    └─Sequential: 2-6                   [1, 64, 14, 16, 1]        --
│    │    └─Conv3d: 3-15                 [1, 64, 14, 16, 1]        442,368
│    │    └─LeakyReLU: 3-16              [1, 64, 14, 16, 1]        --
├─Conv_Block_noNorm: 1-7                 [1, 32, 14, 16, 1]        --
│    └─Sequential: 2-7                   [1, 32, 14, 16, 1]        --
│    │    └─Conv3d: 3-17                 [1, 32, 14, 16, 1]        55,296
│    │    └─LeakyReLU: 3-18              [1, 32, 14, 16, 1]        --
├─Dropout: 1-8                           [1, 32, 14, 16, 1]        --
├─Linear: 1-9                            [1, 128]                  917,632
├─Linear: 1-10                           [1, 64]                   8,256
├─Linear: 1-11                           [1, 3]                    195
├─Softmax: 1-12                          [1, 3]                    --
==========================================================================================
Total params: 4,355,299
Trainable params: 4,355,299
Non-trainable params: 0
Total mult-adds (G): 32.67
==========================================================================================
Input size (MB): 14.16
Forward/backward pass size (MB): 1082.69
Params size (MB): 17.42
Estimated Total Size (MB): 1114.26
==========================================================================================
==========================================================================================
Layer (type:depth-idx)                   Output Shape              Param #
==========================================================================================
Iron_NN_no_batch                         [1, 3]                    --
├─Conv_Pool_Block_noNorm: 1-1            [1, 32, 127, 143, 23]     --
│    └─Sequential: 2-1                   [1, 32, 127, 143, 23]     --
│    │    └─Conv3d: 3-1                  [1, 32, 254, 286, 46]     864
│    │    └─MaxPool3d: 3-2               [1, 32, 127, 143, 23]     --
│    │    └─LeakyReLU: 3-3               [1, 32, 127, 143, 23]     --
├─Conv_Pool_Block_noNorm: 1-2            [1, 64, 62, 70, 10]       --
│    └─Sequential: 2-2                   [1, 64, 62, 70, 10]       --
│    │    └─Conv3d: 3-4                  [1, 64, 125, 141, 21]     55,296
│    │    └─MaxPool3d: 3-5               [1, 64, 62, 70, 10]       --
│    │    └─LeakyReLU: 3-6               [1, 64, 62, 70, 10]       --
├─Conv_Pool_Block_noNorm: 1-3            [1, 128, 30, 34, 4]       --
│    └─Sequential: 2-3                   [1, 128, 30, 34, 4]       --
│    │    └─Conv3d: 3-7                  [1, 128, 60, 68, 8]       221,184
│    │    └─MaxPool3d: 3-8               [1, 128, 30, 34, 4]       --
│    │    └─LeakyReLU: 3-9               [1, 128, 30, 34, 4]       --
├─Conv_Pool_Block_noNorm: 1-4            [1, 256, 14, 16, 1]       --
│    └─Sequential: 2-4                   [1, 256, 14, 16, 1]       --
│    │    └─Conv3d: 3-10                 [1, 256, 28, 32, 2]       884,736
│    │    └─MaxPool3d: 3-11              [1, 256, 14, 16, 1]       --
│    │    └─LeakyReLU: 3-12              [1, 256, 14, 16, 1]       --
├─Conv_Block_noNorm: 1-5                 [1, 256, 14, 16, 1]       --
│    └─Sequential: 2-5                   [1, 256, 14, 16, 1]       --
│    │    └─Conv3d: 3-13                 [1, 256, 14, 16, 1]       1,769,472
│    │    └─LeakyReLU: 3-14              [1, 256, 14, 16, 1]       --
├─Conv_Block_noNorm: 1-6                 [1, 64, 14, 16, 1]        --
│    └─Sequential: 2-6                   [1, 64, 14, 16, 1]        --
│    │    └─Conv3d: 3-15                 [1, 64, 14, 16, 1]        442,368
│    │    └─LeakyReLU: 3-16              [1, 64, 14, 16, 1]        --
├─Conv_Block_noNorm: 1-7                 [1, 32, 14, 16, 1]        --
│    └─Sequential: 2-7                   [1, 32, 14, 16, 1]        --
│    │    └─Conv3d: 3-17                 [1, 32, 14, 16, 1]        55,296
│    │    └─LeakyReLU: 3-18              [1, 32, 14, 16, 1]        --
├─Dropout: 1-8                           [1, 32, 14, 16, 1]        --
├─Linear: 1-9                            [1, 128]                  917,632
├─Linear: 1-10                           [1, 64]                   8,256
├─Linear: 1-11                           [1, 3]                    195
├─Softmax: 1-12                          [1, 3]                    --
==========================================================================================
Total params: 4,355,299
Trainable params: 4,355,299
Non-trainable params: 0
Total mult-adds (G): 32.67
==========================================================================================
Input size (MB): 14.16
Forward/backward pass size (MB): 1082.69
Params size (MB): 17.42
Estimated Total Size (MB): 1114.26
…
